mnist_model.pth (torch, 903536 bytes, 8 tensors)

layers.0.weight f4 [32, 1, 3, 3]
00000000: fd84 273d b6a0 ac3e c5db 733e e0da cdbe
00000010: 4299 71be ce44 ce3e 8a5e 6bbd adaf adbe
00000020: 71f0 4c3e 2a39 9abe f769 f53e 75c5 343e
00000030: 30e0 ac3e 7cb0 0a3e aedf d0bd 13c3 553e
00000040: 33ec 753e 1810 94be 779d 143d 44fe 8abe
00000050: 26f0 e1be e863 8c3e 8392 ea3d 5840 a9be
00000060: 0845 b43e c869 223e bb6f 883e d8ce 86be
00000070: b19b a9be c96b 8fbe 888b 023d 3655 8cbe
00000080: 080a 64be 6761 033f 592d 0b3f 972d a73e
00000090: 9f36 2f3e be61 69be a553 6abe aa87 0b3e
000000a0: 8c49 3dbe 871a 18be 9f2c 32bc e3d1 20be
000000b0: 21a7 93be 2c1b f83d a4b7 a73e e07f d6bd
000000c0: 9903 973d 8ed8 b4bd 2634 eebd d4df 21be
000000d0: 361a 6ebe 21c2 d2bd 3be6 703e af79 f9bd
000000e0: 9417 333e e09c 04bd 361a 8f3e aede a13e
000000f0: 1349 a8be 631c 8ebe 3ea8 bc3e 6dbf 85bc
00000100: 6afc 0fbe 377f 6cbe 1b95 92be a7ab f3bd
00000110: 270b 8dbe 4244 a0be 9e90 6c3c 502b 89bd
00000120: 3fa0 193e fb1a 33be f117 ba3e 730c 81be
00000130: e84e 103e 9983 c6be e810 31be dd16 9bbe
00000140: ab04 48bd f6dd c03d 6f86 a63d 8cff 69be
00000150: adb2 84bd 207f f13e 4194 c53e c7f5 80be
00000160: 46a9 d0be ff0f 61bc e2a8 a2be 6bc0 8dbe
00000170: 9cee ea3d 4389 96bd 702a 86bd 7c25 98be
00000180: 895a 6bbe 71f8 e8bd f26f 313a 6c02 f13d
00000190: 0f77 97be 4bd3 cb3d a260 4d3e b0a6 8ebe
000001a0: 3d4c 2f3c 604f 723e c0d0 1cbe 1288 d9bd
000001b0: 2d3c d4bd 6bdc bbbe 20d8 a33e 52aa d1be
000001c0: a631 4a3e 9509 493e c106 e5bd e207 f53e
000001d0: 5b4f 9bbd 2dde 22be f66a 80be 1f28 e73d
000001e0: 5e93 3dbe 63b9 503e 3c8d c53c 437c 433d
000001f0: 59b0 3b3e 75da 65bd a604 7fbe 76be 1d3c
00000200: 1067 0a3f 31d0 e33e 9a87 c33e 8a3b 61be
00000210: fa1f c3be 0d19 51be 38b8 ecbe bc79 97be
00000220: cbcf 57be 94be f83e cb3b 793c f668 8fbe
00000230: a931 8e3e f267 7fbe 9571 8abe 9048 ee3e
00000240: 72ac 423e 029e 2bba 3780 7a3e 85ef 773e
00000250: 019f 963e 805d 95be 039e 6dbe f90d 6c3e
00000260: 327a c93e 979d d63e 6e95 8dbe a845 c7be
00000270: 66d3 383e 50a2 40be 7091 89be ce7e ce3e
00000280: 4044 883e cc12 df3b 6967 87be dc89 c2bd
00000290: dd63 3e3e e48a 52be 6144 89be 4cc5 27be
000002a0: 15da 803c c03a 76be a18f 93be 669b df3d
000002b0: 1310 aeb9 0a08 d1be 16f7 f7bb 3f0c 873e
000002c0: de01 85bd 50d1 ebbd f1ca b63e 229d d43d
000002d0: e604 1ebd 9d34 10be 162e 81be d895 8cbe
000002e0: 160a 49be f627 76be dd56 263c 6aa2 c03d
000002f0: 0829 4a3e b3b9 0f3e 5845 a5be 8cb8 9ebe
00000300: cf04 aabe 83ac 37be 2286 74be efce 37be
00000310: d1bf ba3d 4db3 be3e b079 b93e 4370 1fbe
00000320: bc55 debd 24e5 31be 0953 aebe 0dee 743e
00000330: 1e31 4bbe ce57 bd3e 4bd5 9fbb 4f9b 84be
00000340: 957a 36bd 9ad0 ffbd 263b d0be a9df cb3d
00000350: dfde f13e e025 89bc f0a0 063f bd84 9bbe
00000360: 19c6 373e 896e df3d 50e1 32be 6dc2 733e
00000370: 2b76 663e c7a1 61be 447d c03d f190 1bbe
00000380: 9a4a 74bd 7362 163e 91b8 fa3e 6d01 d23e
00000390: c9af f13d e6d9 2f3c 1cbc e8be 70bf 38bd
000003a0: 79e0 91be 7b18 c5be b2e3 273c 1816 cf3e
000003b0: 6525 053f e697 e6bc bd0b 40be badd 50be
000003c0: f5ab 2ebd f94c babd bef0 b3be 609e 173e
000003d0: 497d b03d 797b a83d e8a0 32be 6d4a ac3e
000003e0: 8eab 443e d193 debe fef1 bdbe 5be2 c03e
000003f0: 518e 553e 7bda debd 24a5 053e 953a b9be
0.040898312 0.33716363 0.23814304 -0.4020605 -0.2359362 0.4028687 -0.057463206 -0.33923092
0.20013596 -0.30121738 0.47932407 0.17653449 0.3376479 0.13543886 -0.101989135 0.20875196
0.24015884 -0.2891853 0.036282983 -0.27147114 -0.4412853 0.27419972 0.11453726 -0.33056903
0.35208917 0.15860665 0.26647744 -0.26329684 -0.33126596 -0.2801192 0.03187135 -0.2740876
-0.22269452 0.513205 0.5436607 0.3265197 0.1711068 -0.22791192 -0.2288347 0.1362597
-0.18485087 -0.1485387 -0.010874896 -0.15705065 -0.28838447 0.121145576 0.32757294 -0.10473609
0.07373733 -0.08830367 -0.1163104 -0.1580804 -0.23252186 -0.102909334 0.23525326 -0.121814124
0.17489463 -0.03237617 0.27949685 0.31615204 -0.3286825 -0.27756032 0.3684711 -0.01632663
-0.14061132 -0.23095404 -0.28629383 -0.118979745 -0.2754757 -0.31302077 0.014438776 -0.06697714
0.15002535 -0.17490761 0.3634639 -0.2520481 0.140926 -0.38772276 -0.17291605 -0.3029088
-0.048832577 0.09417336 0.0813111 -0.2285139 -0.06479392 0.471673 0.3858967 -0.25187513
-0.40754145 -0.013736724 -0.31769472 -0.27685866 0.114712924 -0.07350399 -0.06551063 -0.29716098
-0.22983755 -0.113755114 0.00067686953 0.1176804 -0.29583022 0.0995241 0.20056394 -0.27861547
0.010699329 0.23663092 -0.15314007 -0.106216565 -0.1036304 -0.36691603 0.32000828 -0.40950257
0.19745502 0.19632562 -0.11182929 0.47857577 -0.07583495 -0.15905066 -0.25081605 0.11286949
-0.18513247 0.2038322 0.024115197 0.047725927 0.1832899 -0.05611654 -0.24904117 0.009627929
0.5406351 0.44494775 0.38189393 -0.21995369 -0.38110334 -0.20419712 -0.46234298 -0.29585063
-0.2107536 0.485829 0.01521201 -0.28009766 0.27772263 -0.24941996 -0.2703978 0.46539736
0.19011095 -0.00065466773 0.24462973 0.24212463 0.29418185 -0.29172897 -0.23204808 0.23052205
0.3935104 0.41917107 -0.27653068 -0.3892033 0.18049392 -0.18811917 -0.26868773 0.4033112
0.2661457 0.0068076607 -0.26446083 -0.09498951 0.18592782 -0.20560795 -0.2680998 -0.16383857
0.01572899 -0.24045849 -0.28820518 0.10918312 -0.00033199842 -0.40826446 -0.0075672967 0.2637653
-0.06494497 -0.115145326 0.35701707 0.10381533 -0.03857889 -0.1408257 -0.25230473 -0.27458072
-0.19632754 -0.24038681 0.010152546 0.09405978 0.19742215 0.14035682 -0.32279468 -0.31000173
-0.33206794 -0.17936902 -0.23879293 -0.17950033 0.09118617 0.3724617 0.36225653 -0.15570168
-0.10856196 -0.17372566 -0.34047726 0.23918934 -0.19842955 0.36981052 -0.0048777214 -0.2589974
-0.044550497 -0.124909595 -0.40670127 0.09954769 0.4724035 -0.016741693 0.5258932 -0.3037471
0.17946662 0.10909755 -0.17468762 0.23804636 0.22506015 -0.2203437 0.093988925 -0.1519201
-0.059641458 0.14685993 0.48968938 0.41016713 0.118011065 0.010733103 -0.45456016 -0.045104444
-0.28491572 -0.3849524 0.010247158 0.40446544 0.52010185 -0.028148603 -0.18754478 -0.20397082
-0.04264446 -0.090967126 -0.3514461 0.14806509 0.08617646 0.082266755 -0.17444193 0.33650532
0.19206068 -0.4347215 -0.37098688 0.37672696 0.2085507 -0.108815156 0.13051277 -0.36177507

layers.0.bias f4 [32]
00000000: 64ba 433e 51b6 7dbd 0888 a5bc f38d aebd
00000010: e4ca 9c3d c2ea 5a3d 2273 863e c425 acbe
00000020: 6b7b 80be 3daf e33c fb7c 283e dc4e 283e
00000030: 1550 16be 30b3 8f3d 86d5 1fbe 1f16 893d
00000040: 605f 373e 5a52 153e 4a3d 8bbe 4387 833e
00000050: 0e37 afbd a0b9 133e ec21 6bbc 572c 7ebd
00000060: fd2c 4f3e ff5b b5bc e425 dd3c 559f d33d
00000070: c06f 95bd e46c a73e 50c9 85bb c3ad 113e
0.19114071 -0.06194145 -0.020206466 -0.085231684 0.07655886 0.05344654 0.26259714 -0.33622563
-0.2509416 0.027793521 0.16453926 0.16436332 -0.14678986 0.07016599 -0.15608796 0.066936724
0.17907476 0.14582196 -0.27195197 0.25689134 -0.08555423 0.14426279 -0.014351349 -0.062054005
0.20232005 -0.022138594 0.026995607 0.103331245 -0.07296705 0.32700264 -0.004082836 0.14226441

layers.3.weight f4 [64, 32, 3, 3]
00000000: a992 333c 9cb7 243e 688c b3bd 39f1 c0ba
00000010: db24 153e ff04 b13c cb4c 0fbe 0571 d53d
00000020: cbd2 b03d 9e97 c6bd a44f 28bd fabf 7d3d
00000030: fd21 e9bd 4826 ddbd 335b 7cbd f28b 453d
00000040: 3a30 36bc af28 38bd e41a 49bd fe43 ebba
00000050: 39d7 843d 3c96 aabc a3c6 cdbd 0ffe 603e
00000060: 527a ec3d a795 13bd 7952 5d3e 2b53 b0bd
00000070: e235 09be b19e 4f3d bfc8 0c3d 7cec 0ebe
00000080: bd4a aabc bc81 023e 1f26 2b3d 1d82 7bbd
00000090: 07ba 263d 2ba5 aebd 4ad4 843d 0c0a c13a
000000a0: f626 f53b b516 4e3c ac5a 87bd 9ee8 113d
000000b0: a399 93bc 41f3 d2bc e78a 65bd 97c4 853c
000000c0: 23e7 8f3c c9dd 68bd 19f7 ffbc 9ac1 443d
000000d0: 1a8d 6cbd 177f bdbc 4281 ecbc e1a4 093e
000000e0: fa59 14be 9700 b5bc 2634 923d 0f47 9eba
000000f0: 87c4 fabd 52e5 25bc 74b0 babc 01c4 0dbd
00000100: 0572 8abd 20f8 29bd 23c6 52bc 5a01 08bd
00000110: fab3 26bd 6979 07bd 53bd 8bbd f572 11bd
00000120: c04f 60bd 0053 eabd a939 a8bc 6daf 953d
00000130: 8e56 a43c 7c2c debd 40ad 6fbd ab78 b93c
00000140: f994 aebd b4c3 e93d d3ee 993d daa1 96bd
00000150: a147 1cbd 554b 8f3d e85c bebb 7f7a 243d
00000160: 2a42 95bd 5989 cf3d 9a56 e4bc e448 89bd
00000170: 313b 8ebc 7aca f1bb ed37 453c 235d c4bb
00000180: d610 f93b 1eb6 24bc 67bf aabd 3039 de3c
00000190: 9c40 bcbb 4db5 253e 78cb 3dbd 4112 0c3d
000001a0: f698 ad3d ad93 26bd 1fed 793d 5f8c 03bd
000001b0: 2ac2 b3bd 793e a4bd 370b 81bd eecd e6bd
000001c0: 4011 90bd 5927 16be 89dc b3bb a036 abba
000001d0: 4a6a 4fbc 7261 85bd e397 26bd 19a8 4abb
000001e0: 5c66 7d3d 84d8 2a3c f59f 49bd f1d3 11bd
000001f0: 5e3d 3fbd 66d9 6f3c e467 b13d 20ac 4bbe
00000200: c604 5abc f1d0 aebd 3bb3 fdbd cd38 6dbe
00000210: 7216 4abd ee09 26bd 85d6 18bd 82e3 9b3c
00000220: dcad 943d 37bf 23bd 495b 14bd 6a2d 213e
00000230: f4b0 b7bb 7623 22bc 28d2 073e 538c f53b
00000240: 1f95 783d c4e2 163d 00e4 c7bd d3fa a6bd
00000250: 8a2c 65bc 5356 653d 2787 12bd 91ad 96bc
00000260: 4a6f 063c 756c eeba 3a90 8a3d bc1d c83d
00000270: 23e2 883d bdca c2bb 5031 6c3e abbc 6ebc
00000280: 4435 c53b e4f0 423e 3147 703c 71f2 0fbd
00000290: 0c68 b33d ffe1 143c f510 133d 690e cbbc
000002a0: f7ca 91bd d7ad 433d 2f47 98bd cc16 5bbd
000002b0: 0ea2 943d dade 0c3d abea 5dbd 8915 8c3d
000002c0: 8c5c 403d ef8d 923d 5013 89bc 37ef e93d
000002d0: 1d12 09bd 16d0 aabd 2f5c 51bb 836c 453b
000002e0: 875a 87bb 42f2 a138 32ed 393c 871e 87bc
000002f0: 43e5 fabd 43ad 00bd 0a95 cbbd cde2 1c3d
00000300: d8ac 7d3d 5e5d bdbd 40d7 90bd a833 46bd
00000310: 116f 573d 8289 8abd bc99 3abc 96e6 46bc
00000320: 1605 f0bc a6fe 8d3c 2b1a e7bd 3fe5 963c
00000330: eea6 37bd faf1 313c 0ab0 07bd e6fb 86bd
00000340: 5fc4 c2bd efbb 27bc 4295 f5bd f23b d3bc
00000350: 7565 69bc 62b4 2abc db05 7bbc 47f7 373d
00000360: f330 f4bb 125c 953d 2425 e13d 6f97 03bd
00000370: 92eb 48ba 85e3 c33c de97 943c ad1e 68bd
00000380: e268 4d3d e24e ce3c c4ef 5abe b24b cf3d
00000390: b825 00be 0938 5fbe c76b efbd c5ff 05bd
000003a0: cf2d 05bd e765 9ebd b413 1a3d 381c b1bd
000003b0: 53f7 54bc 911d cabd 1720 d3bd e11c 38be
000003c0: 6cad b8bd 222e cebd ad9d 6abd 2bc4 903c
000003d0: 7d86 483d 947d 45bc 934a 2abd 56be b33d
000003e0: a70f ee3c c298 ccbd 3dea 71bc b9bf 0a3d
000003f0: 6db4 0ebd debb 143e 52da f53b 45bf b3bc
0.0109602595 0.16085666 -0.08767015 -0.0014720327 0.1456484 0.021608828 -0.13994138 0.104219474
0.086339556 -0.096968874 -0.041091576 0.06195066 -0.11383436 -0.10798317 -0.06161041 0.048229165
-0.011119897 -0.044960674 -0.04909791 -0.001794934 0.06486363 -0.02082359 -0.100476526 0.21971916
0.11546768 -0.03603139 0.21613492 -0.08609613 -0.13399461 0.05068845 0.034371134 -0.13957399
-0.020787591 0.12744802 0.041784402 -0.061403383 0.040704753 -0.08527597 0.064858034 0.0014727726
0.007481451 0.012578656 -0.06609091 0.03562223 -0.018017596 -0.025750758 -0.05604067 0.016329093
0.01756627 -0.056852136 -0.031245755 0.048036195 -0.057751752 -0.02313189 -0.028870229 0.13441803
-0.14487448 -0.022095008 0.07138853 -0.001207562 -0.12244516 -0.010125475 -0.022789218 -0.034610752
-0.06760029 -0.041496396 -0.012864622 -0.033204414 -0.040698983 -0.03307477 -0.0682322 -0.035510022
-0.054763556 -0.11441612 -0.020535307 0.073088504 0.020060804 -0.108483285 -0.058514833 0.022640547
-0.08524508 0.114142805 0.07516255 -0.073550895 -0.03815425 0.0699679 -0.005809415 0.040155884
-0.072880104 0.10133619 -0.027873326 -0.06703356 -0.017362209 -0.0073788734 0.0120372595 -0.005992548
0.007600884 -0.010053186 -0.08337288 0.027126878 -0.0057450067 0.16182442 -0.04633662 0.034197096
0.084764406 -0.04066818 0.061017152 -0.03211629 -0.08777268 -0.08019728 -0.06300967 -0.11269747
-0.0703454 -0.14663447 -0.0054889363 -0.0013062544 -0.012659619 -0.06512727 -0.040672194 -0.0030922948
0.061865196 0.010427598 -0.049224813 -0.035602514 -0.046689384 0.014639234 0.08662394 -0.19889879
-0.013306802 -0.08535946 -0.12387701 -0.23166199 -0.04933781 -0.040536813 -0.037313957 0.019029383
0.072597235 -0.03997728 -0.03621987 0.1573998 -0.0056058113 -0.00989615 0.13263762 0.0074935346
0.060689088 0.036837354 -0.097602844 -0.0815331 -0.01398767 0.05599053 -0.035773423 -0.01839331
0.008205244 -0.0018190282 0.0676579 0.097712964 0.06683757 -0.0059445784 0.23065686 -0.014571349
0.0060183126 0.19037205 0.014665411 -0.03514332 0.0876008 0.009087085 0.035904843 -0.024787145
-0.071187906 0.04777321 -0.07435452 -0.053488538 0.07257472 0.034392215 -0.054178875 0.06840045
0.04696326 0.07155978 -0.016732842 0.1142258 -0.03346454 -0.083404705 -0.0031945815 0.0030124492
-0.0041306647 7.722202e-05 0.011348056 -0.016494049 -0.122507595 -0.031415235 -0.09940536 0.03830223
0.061932415 -0.09246324 -0.07072306 -0.048389107 0.052596156 -0.06764509 -0.011389192 -0.012139937
-0.0292993 0.01733334 -0.11284288 0.01841986 -0.04483693 0.010860914 -0.03312687 -0.065910146
-0.09510111 -0.010237678 -0.11991359 -0.02578542 -0.014245381 -0.010418983 -0.01532122 0.044913556
-0.0074521243 0.07292952 0.10993412 -0.03212684 -0.0007664497 0.0239122 0.018138822 -0.05666988
0.050148852 0.025184099 -0.21380526 0.101218596 -0.12514389 -0.2179872 -0.11690479 -0.032714624
-0.03251439 -0.0773428 0.037616447 -0.086479604 -0.01299842 -0.098689206 -0.10308855 -0.17979766
-0.090174526 -0.10067393 -0.057279278 0.017671665 0.048956383 -0.012053866 -0.041575026 0.08776538
0.029060198 -0.09990074 -0.014765319 0.033874247 -0.034840036 0.1452479 0.0075028324 -0.02194179

layers.3.bias f4 [64]
00000000: 0111 343d 101a 8f3d d7d4 5d3c abdb 9a3c
00000010: b534 dc3c 5013 8f3c 53c3 bbbb 661e ab3c
00000020: 8cd6 4bbd 5739 f7bc 02dd 25bd d0f4 e53c
00000030: 84df 113b 002d e53b 940a 8dbd 97e1 d43c
00000040: e971 093d ab2d e1bb db2f 233d 9ddc 2abd
00000050: 09de bebc 1206 bcb9 8384 6e3d 7366 bfbc
00000060: a7d5 07bd f23b 4abd cf45 27bc b7fa cb3b
00000070: e3e4 40bd 60be 2fbd b572 273d 2c98 57bd
00000080: fd76 f73c 5e06 12bd bc82 743d 5377 813d
00000090: 6468 95bc b12e 70bd 34d5 27bd 5df7 09ba
000000a0: c31d cfbb 820a 5cbd 8cb6 a4bd ad5e 46bd
000000b0: 63c9 143d 1d48 afbb aeb0 79bd 38f5 19bd
000000c0: 33f6 00bd 13f7 76bd 1982 b8ba a834 0abd
000000d0: d356 32bd 6c5b 61bd 55fb 7e3c b440 803b
000000e0: cb14 313d ff7d 0cbc aef1 8abb 5695 213d
000000f0: 0f2d 6abb 7f09 843d 60a5 0bbd ceab 4cbd
0.04396153 0.06987393 0.0135395145 0.018903574 0.026880601 0.017465264 -0.0057300716 0.020888519
-0.049765155 -0.030178709 -0.040493973 0.028070837 0.002225847 0.00699389 -0.06886783 0.025986476
0.0335559 -0.006871899 0.03984056 -0.0417143 -0.023299234 -0.00035862677 0.05823184 -0.023364281
-0.03316274 -0.049373575 -0.010209515 0.006224956 -0.047093283 -0.042906165 0.040880878 -0.052635357
0.030208105 -0.035650603 0.05969499 0.063215874 -0.018238254 -0.05863828 -0.04097481 -0.0005262995
-0.0063206865 -0.05372096 -0.080426306 -0.048430134 0.03632487 -0.0053491727 -0.06095951 -0.037587374
-0.031484794 -0.060294222 -0.0014076858 -0.033741623 -0.043539833 -0.055018827 0.015562852 0.003913963
0.04323272 -0.008574962 -0.0042402362 0.03944906 -0.0035732423 0.06447124 -0.03409326 -0.049968533

layers.7.weight f4 [128, 1600]
00000000: 5f18 ccbd b78c 3cbd 5010 0fbc 2f47 393d
00000010: 9a81 5e3c 7fd8 33bd 2e1d ef3c 1e9b d33d
00000020: 5cac e63d ca36 cb3d ea16 e43c 1eb1 1e3d
00000030: e236 babc dae0 d43d f3b5 9f3d 949a ea3c
00000040: c49c ec3b f17e 4bbd c472 2bba 1feb 4d3c
00000050: 10d5 adbc 21f7 cebc 7962 23bd 32f3 2c3c
00000060: 3b07 823d 3a3b 8cbd e270 7cbd 3a07 6ebc
00000070: 7f57 ed3b ea51 b23c 3408 8b3b 8daa 133c
00000080: b225 4bbc 6624 ac3d 6e87 cb3d c6b6 203d
00000090: c548 613d 96a5 18bd c9eb ab3d 4374 de3d
000000a0: 1fde 1d3d f8fd 893d 8112 83bd 4f71 f23c
000000b0: 80fe a53d a6dc eb3b 4049 38bd 93d5 27ba
000000c0: 4a40 183d d639 e53d bcab 503b 5773 083d
000000d0: fbc1 7dbd f7c4 8dbd a27a 673b 9256 73bb
000000e0: 515b 0a3c db3a 08bd f42d a4bd 2913 fbbc
000000f0: c165 c73c b49d 36bd 7720 ef3c ebbf 8b3d
00000100: 96a3 833d afab 39ba b0a2 8dbc 8f14 78bc
00000110: 8568 153d f4c9 d03c 7df6 4d3a b8a8 13bc
00000120: b822 45bd c933 27bd 0e73 37bd b1ad 30bd
00000130: ed6d 7ebc 6715 753d 9db1 ca3c bc12 0c3d
00000140: 8684 bf3d 7aca 2e3d eba6 853d 206b bf3c
00000150: 3a0f 31bb 12da f83b 216a 943d 3805 533d
00000160: f7c4 0bbe a5e3 e8bd 86e8 0cbe 1780 e7ba
00000170: ebd0 363d c0b8 dbbc d729 45bd 1508 f8bc
00000180: 500d a0bc 1eab a7bc 3a2e 31bc acb6 233d
00000190: e2bf 9abc ce40 c63c 5ed4 3b3c 1015 07bb
000001a0: 3a10 30bc e953 b23c 6a7b 37bc 748e d63b
000001b0: 65e2 8ebc 0645 503c aa44 08bc e740 7dbc
000001c0: 4ab8 d0bc 203a afba eaa8 07bc 38bf a53b
000001d0: 8271 513c 8e90 233c 1815 4f3b 1e9a 923c
000001e0: db33 bb3c 41bf ae3c 0075 a1bb 820f 323c
000001f0: cc4c 91bb b834 5ebd 05f5 8cbd c092 6abc
00000200: 14f8 f03b 9687 3dbc 40cd b3ba 636a dc3a
00000210: 114f 843c 4a29 d13d eb99 593d 753f 223c
00000220: 3236 7ebb c827 2bbd 0e68 b53d fda7 083e
00000230: 155a bd3c 79ca 163d 1083 1dbd c391 a33d
00000240: 3479 cb3d 4213 a4bc 979b f2bb c8e1 5c3d
00000250: 5409 c53d 81fa 123e 7225 99bd 2713 91bd
00000260: 42f2 60bc c1bb ddbd 7daf 85bc 0be4 a1ba
00000270: 920d 2d3d 3fbd 613d 5416 f73c 99c1 ba3d
00000280: 4cad 6abd 5130 d73a 91d9 833d c8e9 8d3d
00000290: dc24 863d 5db6 73bc 27e6 d4bb c82e 7c3d
000002a0: b0e8 083c fe8c 6b3c f829 493c be91 683b
000002b0: 2388 5bbb cb5a 063d b12c eabc 290e 113d
000002c0: f5e6 5ebb 56a2 c2bc e1e7 94bb eef9 b13a
000002d0: 09c2 9b3c 6111 cb3c 4b46 5e3c 40c7 08bd
000002e0: adb1 00bc 9efd 703c 41c3 5e3d 9d3d a4bc
000002f0: 8cbb a1bd 75c0 84bc 5c8f 423d b8c7 8e3d
00000300: 39c4 d73c fff3 053c 2fcf 2c3d 9627 403c
00000310: 3864 bb3c 7f6b 1f3c 5541 0dbd b9fc 083c
00000320: e507 65bd ed3d c1bc e1be f93b 8357 ac3d
00000330: fcc4 493d 9c92 343c add2 bd3c 7041 383c
00000340: 7fb5 853d 28e0 123e fc75 b03b f826 ffbb
00000350: 423e 3dbe 3cdf a33d 4345 083e 14d4 063d
00000360: a1d4 b93b 7960 8dbd d2dc 8f3d 16c5 fe3c
00000370: 3d62 01bc cd9b dabc 23d0 aa3d 0b39 193d
00000380: 81ed 26bc 8025 ea3d c705 9fbd 3aa6 77bd
00000390: 5125 acbc 487d 66bd a88e 473c f163 9d3d
000003a0: 5bad a03a 2a18 9bbb 2e5e e53b 9f85 e03d
000003b0: 00e8 c43c 5a20 f13d 820a 3dbd 1781 87bd
000003c0: b4a3 d03d bae5 873d 8575 913d 81aa f5bd
000003d0: 6076 8f3c 8265 353d 46fa a5bc b1e7 76bd
000003e0: 6e94 69bd 7c25 91bb 6001 e13c 82b2 8e3c
000003f0: 546c 7f3c 1fd5 b3ba eaa8 7b3c 42d6 d53c
-0.09965586 -0.046032634 -0.008731917 0.0452339 0.013580704 -0.04390764 0.029188719 0.10332321
0.11263344 0.099225596 0.027842958 0.03874313 -0.022731248 0.103944495 0.07798376 0.028638162
0.0072208364 -0.049681608 -0.0006540234 0.012568264 -0.02121976 -0.025264325 -0.039888833 0.010556029
0.06349035 -0.06847234 -0.06163109 -0.01452809 0.0072430964 0.021767575 0.0042429212 0.00901283
-0.012399124 0.0840538 0.099379405 0.039236806 0.05500104 -0.03726729 0.08394582 0.10862019
0.03854191 0.06737894 -0.06400014 0.029595045 0.08105183 0.007197934 -0.04499173 -0.00064023695
0.037170686 0.11192672 0.0031840643 0.03331312 -0.061952572 -0.06922334 0.0035320898 -0.0037130457
0.008444623 -0.033259254 -0.08016577 -0.030648785 0.024340512 -0.04458399 0.029190285 0.06823715
0.06427686 -0.0007082773 -0.01728949 -0.01514162 0.03647663 0.025486924 0.0007856859 -0.009012394
-0.048128814 -0.04082087 -0.04478746 -0.043134395 -0.015529138 0.059834864 0.024742896 0.034197554
0.09351449 0.042673565 0.06525978 0.02336651 -0.0027017132 0.0075943554 0.07246805 0.05151865
-0.13649355 -0.11371545 -0.13760576 -0.0017662075 0.044632833 -0.026821494 -0.048135605 -0.030277291
-0.019537598 -0.020467337 -0.010814244 0.03996913 -0.018890325 0.024200823 0.0114642065 -0.002061192
-0.010746056 0.021768527 -0.011198858 0.0065477435 -0.017441938 0.012711769 -0.008317152 -0.015457368
-0.0254785 -0.0013368763 -0.008280018 0.0050581954 0.01278341 0.009983195 0.0031598266 0.017895754
0.022851875 0.021331431 -0.0049272776 0.010867955 -0.0044342037 -0.054249495 -0.06882671 -0.0143172145
0.007353792 -0.011567971 -0.0013717785 0.0016816374 0.016150983 0.102129534 0.053125303 0.009902825
-0.0038789627 -0.041785985 0.088577375 0.13345332 0.023114244 0.036814187 -0.03845507 0.07986786
0.09935227 -0.020028714 -0.0074038017 0.05392626 0.0962092 0.14353372 -0.07477845 -0.07083731
-0.013729634 -0.10826827 -0.01631903 -0.0012351287 0.04224927 0.05511212 0.030162014 0.09118957
-0.057294175 0.0016417598 0.06437982 0.06929356 0.06549999 -0.014875022 -0.006497163 0.06156805
0.008356258 0.014376877 0.012278073 0.003548726 -0.0033497892 0.03280143 -0.028585764 0.035413895
-0.0034012173 -0.023759048 -0.0045442437 0.0013578513 0.019013422 0.02478856 0.013566564 -0.033393145
-0.007854861 0.014708905 0.054385427 -0.02004891 -0.078971 -0.016205052 0.0475 0.06971687
0.026338683 0.008175849 0.042189773 0.011728188 0.022874936 0.009730219 -0.034486134 0.008361035
-0.055915732 -0.023589099 0.0076216315 0.08415129 0.049260125 0.0110212825 0.023171747 0.01124607
0.06528758 0.14343321 0.0053851586 -0.007786628 -0.1848078 0.08001563 0.13307671 0.032917097
0.0056710993 -0.06903166 0.0702454 0.031099837 -0.007896957 -0.02668562 0.0834048 0.037407916
-0.010188461 0.11432934 -0.07764774 -0.06046126 -0.021013888 -0.05627182 0.012180008 0.07685078
0.0012258695 -0.004733105 0.0069997525 0.10962986 0.024036407 0.11773749 -0.0461526 -0.06616419
0.10187474 0.06635614 0.07102493 -0.11995412 0.0175125 0.04428626 -0.020260941 -0.060279552
-0.05702632 -0.0044295173 0.027466476 0.017419104 0.015589792 -0.0013720131 0.0153600965 0.026103143

layers.7.bias f4 [128]
00000000: 34d3 e93b 449e 5a3c 404b 0b3c ca71 583c
00000010: ebd3 323d 38fb 3b3c 6716 debc c1b9 afbc
00000020: cc3b 7dbc 7b32 533d 5f00 b7bb 8910 1bbc
00000030: 47c2 dd3b e7c9 1bbc 2e90 3c3c 010a 903c
00000040: 0a1f 2c3d 64b7 163c f8af 96bc e0af 9e3c
00000050: e659 393a 4bab e2bc c34d 563b fb87 e5bc
00000060: 6df2 793c 6031 c73c e9f4 a33c 36ef 803c
00000070: b764 813b 0c84 723b de10 dbbc 4aa1 59bb
00000080: 88a2 113d d004 1a3d 0e46 2c3d 0a06 d73a
00000090: 6e37 d33b cc07 933b 02e0 05bc 3ee7 073c
000000a0: 0efa f03c 2be9 edbc 3ff4 0abd e4aa acbc
000000b0: 73dd c5ba 4b0e a43b 64c4 703c a8d9 913c
000000c0: d362 b23c 9da9 cdbc b54c e83c a53f e8bc
000000d0: 5fba 9e3b 28f6 cabc 4f65 fbbc 8349 e7bc
000000e0: 39c3 323c d00b c13b 1675 14bc 6450 f73c
000000f0: 6bc0 4c3c 279b bb3b cc64 d83b 2853 d4bb
00000100: 2e2b 0cbc b6d2 98bc 8fa8 073c dcca 4f3c
00000110: 9d79 cebc 0b3a 82bc 8ef4 013c d3c8 a53c
00000120: 7630 d3bb de03 f83b 0bc1 e23c aaf0 0abc
00000130: 5fd3 02bd 20c4 93bc bce3 59bc 0c31 c5bc
00000140: dd1a 573c 4d6d 2238 f1dc fbbc bc15 4abd
00000150: f6b6 44bc 8e4a 203d b780 993a 81e9 30bb
00000160: f61c c63c 968b 2c3d 7c5a 753c f339 063b
00000170: c3ec ef3c db50 563c 62eb 6539 b896 ab3c
00000180: cf42 b63c a762 6abd e775 86bc 6ad0 8e3b
00000190: a7bd d4ba bef4 b53c 50f7 783c 998a 963c
000001a0: 10ff 8d3b e397 d0bb 970c 833c 8612 353d
000001b0: 457a 9f3c 8909 123c 7818 a1bc 810b 1a3d
000001c0: d526 443a 0cf1 0a3c e86d 9bbb 1b1b 8bbc
000001d0: c35d a63c 1320 d63a a171 ddbc 148c c4bb
000001e0: 6ab3 33bd 1466 f6bc 4a16 d4ba 5ed8 8fb8
000001f0: b300 053d faa6 bd3c d6bc 013b dec7 27bc
0.007135773 0.0133433975 0.008501828 0.013210723 0.043659132 0.011473469 -0.027110292 -0.021450879
-0.015456151 0.051561814 -0.005584761 -0.0094643915 0.0067675444 -0.0095085865 0.0115089845 0.017582895
0.04202179 0.009198997 -0.018394455 0.019370973 0.0007070586 -0.02766957 0.0032700158 -0.028018942
0.015255553 0.024315536 0.020014243 0.015739065 0.0039487737 0.0037004976 -0.026741441 -0.0033207708
0.035555393 0.037602246 0.042058997 0.0016404998 0.0064458167 0.0044870134 -0.008171083 0.0082948785
0.02941611 -0.029041847 -0.033924337 -0.02107758 -0.0015095904 0.0050065867 0.014695261 0.017803982
0.021775639 -0.025105292 0.02835689 -0.02835066 0.0048439945 -0.02477558 -0.030687956 -0.028233295
0.0109108025 0.0058913007 -0.009061119 0.0301897 0.012497048 0.0057252827 0.006603813 -0.0064796396
-0.008555217 -0.018655162 0.008279934 0.012682643 -0.025204474 -0.015896818 0.007931842 0.020237362
-0.006444986 0.0075688204 0.02767994 -0.00848023 -0.03193986 -0.018037856 -0.013298925 -0.024071239
0.013128963 3.8725604e-05 -0.030745002 -0.049337134 -0.012006512 0.0391336 0.0011711334 -0.0026994648
0.024183732 0.042125307 0.014975186 0.0020481318 0.029287701 0.013080801 0.00021926829 0.020945892
0.022248654 -0.05722299 -0.016413642 0.004358341 -0.0016230837 0.022211429 0.015195683 0.018376635
0.0043333843 -0.0063657626 0.015997214 0.04420712 0.019467482 0.008913406 -0.019664988 0.037608627
0.0007482593 0.008480322 -0.0047433265 -0.016980698 0.020308381 0.0016336463 -0.027031722 -0.005998144
-0.043872274 -0.030077972 -0.0016180959 -6.859073e-05 0.03247137 0.02315091 0.0019796393 -0.010240523

layers.9.weight f4 [10, 128]
00000000: 6f6c 3d3d 3d32 d2bd f991 f8bd 8761 e5bd
00000010: 6dd9 e7bd d763 ee3b 8f49 0c3d f377 05be
00000020: df86 79bd a658 ed3d 7a64 82bd 3f3f 8ebc
00000030: 4bc3 2c3d a498 19be e2e0 ac3d e7b1 a23d
00000040: 0025 99bd 544b 66bd 1931 8cbd 9dbc 6abd
00000050: b8f8 94bd 4b04 79bc 5f99 2c3d 174b 0ebc
00000060: df14 80be bd11 8dbd c895 c23d c8ed c03c
00000070: 5cec 9abd 0dad a23d 5516 283e 4d06 a83d
00000080: 282f 89bd e00c e3bd d944 1d3e 5f98 8fbb
00000090: 050b 7abd 9c84 3ebc 4c63 3eba 06d7 4dbd
000000a0: f1a7 c03b 0808 67bd 4cae dcbd 75fa ae3c
000000b0: 6a5a 10bd 0939 c03c 8ab7 fb3c 7d08 dd3b
000000c0: 62ab 083d 6cfa 54bd a6d6 2ebd 64a8 89bd
000000d0: 8829 d1bc 2693 27bd ab4e 01bd 595c 1dbd
000000e0: 0555 d5bd c6cf 123d 76dd a1bc 09ac 80bc
000000f0: deba 0b3e 7f7f 9d3d e47f a5bc 9cf2 c33d
00000100: 66b1 87bd ea19 463d 624e c2bc b132 833c
00000110: 9836 7d3c 609c 683c f222 69bd b9d8 7a3d
00000120: cd4d 813c a5f8 083d db0b 943d aa88 1dbb
00000130: b3e7 5b3d 1cfb 353d 2eb5 883d d1e7 adbc
00000140: 756b 19be 0423 98bd fcfd 7d3d bdb5 35be
00000150: f334 a73c 935e 5bbd 3539 05be c4f7 18bd
00000160: c71e 7a3b f6d5 8b3d b375 94bd 3bd8 663d
00000170: a80d b33c 060d a9bd a0fc 373d 6837 9dbd
00000180: 1b48 4c3c 364c f3bc 7331 9c3d 16bf 11be
00000190: e6dc 86bd 5936 923d d4fb f4bc 430b 3cbd
000001a0: d4e2 5fbe e38f 0bbc 72b9 76bd 4ae5 15bd
000001b0: 82fb 9bbc 8d57 02be 0baf a9bd 2641 b93d
000001c0: ba52 d2bc 2be7 963d 497e fe3d e297 803c
000001d0: 2ce9 4bbd 4adc 77bd 9860 e23c ba05 0cbd
000001e0: 7e33 77bc 35e6 363d 8f8a 663d 06a1 e4bc
000001f0: 3aa0 873d 91d9 7c3d 2096 75bb 2d20 9abd
00000200: 8619 adbd 99c7 b03d 89f2 2fbd 930e 16be
00000210: 937c c63d 3bf5 15be 1fbd 28be 1376 96bd
00000220: 238e 403e 9f34 0e3e fa26 2a3c 9380 81bd
00000230: acc8 b53c 1f09 9dbd 2f7a b8bd c7ac 613d
00000240: 9bfb 1f3d 5e71 2b3d ba5b 82bd dc59 ab3d
00000250: f896 bbbc ae87 303d ca5e 233d c9d5 753c
00000260: fd0e d33d 5fd4 e2bd 2dc8 863c c6c2 a93d
00000270: 783e 34bd 6c75 613c 8e34 30bd 5b8a afbc
00000280: 62b6 503d 80eb f93d b369 51bc 8019 103b
00000290: c9cc 92bd e0fb b4bd ca69 8e3d 8ccf 3c3d
000002a0: ef21 b4bc 9321 6dbd de17 56bd d28a 87bd
000002b0: ebac 63bd a4ac 683d a219 9ebd 608d de3d
000002c0: c239 aabd 6374 5abd 4fb5 c63d edd0 54bd
000002d0: 819c a0bd 83ec 8bbd b197 e5bc ad60 c53c
000002e0: 3ab2 9fbd 1336 10be 24bb 853d 4423 923d
000002f0: 4d35 e13b 5f4b b5bc 710c 273e 1fd2 2ebd
00000300: dea7 f93c 576f 9d3d 13b4 b93d 60ce 04bd
00000310: 14e6 97bd e6a9 a13d 0a42 c5bd a2c4 e73d
00000320: c437 00bd 49b6 06be 1249 a23c 34bd 96bd
00000330: 155d cdb8 32ea 463d 9f7a f3bd e73b 1c3d
00000340: b26b d83c 8554 a13b 578f 2dbe 7128 b6bc
00000350: dedb 553c 0a3a 1d3d 36d0 f4ba c9b6 a33d
00000360: 8167 b33d 9f63 b93d b507 45bd d054 d6bc
00000370: 89b1 963d 02f0 7e3d c79d ab3d 31d5 af3d
00000380: 38b6 423d 3542 65bd 9101 b33b f8f2 883d
00000390: e1c1 183c 388c dd3d ad8d eabc 6911 8f3d
000003a0: b54d 19bd 0f6b c7bc 9ddc 92bd 275b b03d
000003b0: b0ef 25bd 526d 433d faeb 1ebd 6303 da3a
000003c0: d44d a83d 7a0c 4bbe 2a00 b2bd 8991 d6bd
000003d0: b211 ba3c d54d a63d 0f4c 7a3d b8c4 343d
000003e0: 7e9b 853c 3f8c e4bc abf7 cebd c63a 33bd
000003f0: 2195 6d3d 1f21 253e 1b87 583c 5399 bfbc
0.04624599 -0.102634884 -0.12137217 -0.112002425 -0.113207676 0.0072750854 0.03424984 -0.13034038
-0.06091964 0.11589174 -0.06366821 -0.017364142 0.042178433 -0.14999634 0.084413305 0.079440884
-0.0747776 -0.056224182 -0.06845302 -0.057308782 -0.07274002 -0.015198777 0.042138454 -0.008684895
-0.25015923 -0.06888149 0.09501225 0.023550883 -0.07564613 0.07943163 0.16414769 0.08204327
-0.066984475 -0.1108644 0.15358295 -0.0043821777 -0.061045665 -0.011628296 -0.0007262721 -0.05025389
0.005879395 -0.056404144 -0.10775432 0.021359662 -0.035242476 0.023464696 0.030727167 0.0067453966
0.03336657 -0.051996633 -0.042685173 -0.06721571 -0.025532499 -0.040911816 -0.031569164 -0.038418148
-0.10416607 0.03584268 -0.019758921 -0.015707033 0.13645503 0.076903336 -0.020202585 0.095677584
-0.06625633 0.048364557 -0.023719016 0.016015382 0.015454911 0.014197439 -0.056918092 0.06124184
0.015784169 0.03344025 0.07228824 -0.0024037757 0.053687762 0.04442893 0.06675182 -0.021228703
-0.14982398 -0.07428554 0.062009797 -0.17745109 0.02041099 -0.05355699 -0.13010104 -0.037345663
0.0038165317 0.06827919 -0.07249012 0.056358557 0.021857098 -0.08254437 0.044918656 -0.076765835
0.012468363 -0.029699426 0.07626619 -0.1423305 -0.06585102 0.07139272 -0.029905237 -0.045909178
-0.21863872 -0.008518192 -0.06023545 -0.03659562 -0.019040827 -0.1272871 -0.0828534 0.09045629
-0.025674213 0.073683105 0.12426431 0.015697423 -0.049782917 -0.06051282 0.02763395 -0.03418515
-0.01508796 0.044653136 0.056284484 -0.027908813 0.06622358 0.061730925 -0.0037473515 -0.07525668
-0.08452134 0.0863182 -0.04295591 -0.14653997 0.096917294 -0.14644329 -0.16478394 -0.073467396
0.18804221 0.13887261 0.010385269 -0.06323352 0.022190414 -0.07667755 -0.0900768 0.055096414
0.03905831 0.041856162 -0.06365152 0.08366749 -0.022899136 0.043098144 0.03988532 0.015004584
0.10305593 -0.11075663 0.016452873 0.08289103 -0.044004887 0.013760906 -0.04301887 -0.021428278
0.050955184 0.12203121 -0.012781548 0.0021987855 -0.07167966 -0.08837104 0.069537714 0.04609637
-0.021988837 -0.057893347 -0.052268855 -0.06618275 -0.05558483 0.056805268 -0.07719733 0.10866809
-0.08311798 -0.05333365 0.097025506 -0.05195706 -0.07842351 -0.068322204 -0.028026434 0.02409395
-0.07797666 -0.14083128 0.06529835 0.07135633 0.006872809 -0.022130666 0.1631334 -0.042680856
0.030475553 0.07687252 0.090675496 -0.032423377 -0.07416931 0.07893734 -0.096317366 0.113168016
-0.031303182 -0.13155474 0.019810233 -0.073603064 -9.7924996e-05 0.04856319 -0.118886225 0.038143065
0.02641854 0.0049234056 -0.16949211 -0.02223608 0.013052909 0.03838543 -0.0018677774 0.07993848
0.08759976 0.09052204 -0.048103053 -0.026163489 0.07358081 0.062240608 0.08379703 0.08585585
0.04753706 -0.055971343 0.005462833 0.066869676 0.009323568 0.1081776 -0.02863201 0.069857426
-0.037427623 -0.024343042 -0.07170985 0.08611136 -0.040511787 0.047711678 -0.038799264 0.0016633089
0.082179695 -0.19828978 -0.086914375 -0.104769774 0.022713516 0.08120314 0.06110769 0.044132918
0.016309496 -0.027898906 -0.10105833 -0.043757223 0.05800355 0.16125916 0.013215805 -0.02338854

layers.9.bias f4 [10]
00000000: 7d47 893b 1532 ec3b 70d2 a33d 1239 a03d
00000010: 9f1d b4bd b1f3 193d aa87 c2bd 53d3 253c
00000020: 6ddd b33b ec7e cd3c
0.0041894303 0.0072081187 0.07999122 0.07823385 -0.08794712 0.037585918 -0.09498532 0.010121184
0.0054890425 0.025084935
