mnist_model.pth (torch, 903536 bytes, 8 tensors)

layers.0.weight f4 [32, 1, 3, 3]
-0.4684976 0.38497838 0.33204305 0.064150766 0.25431746 -0.36418402 -0.09961138 0.19117202
-0.2037532 -0.052178968 0.40430313 -0.020393115 0.124874495 0.1398752 0.16402557 0.31140453
0.27557826 0.17869423 0.25199506 0.20321363 -0.54155 -0.08213041 0.42168406 -0.019114597
-0.35949868 0.37733674 0.00857056 -0.17637195 -0.31851146 -0.12621713 -0.34656057 -0.19687636
-0.2620643 -0.11405068 0.33029377 0.0850597 -0.017987395 -0.079894416 0.060090415 0.21510598
-0.23579878 -0.25377738 -0.2718133 -0.13784279 -0.16404167 0.18230292 0.09420414 0.6402895
-0.3622652 -0.16487867 0.48683485 -0.455082 -0.5390216 0.13562211 0.0050667543 0.3835761
0.3144055 0.07030029 0.30915397 -0.15512079 -0.31874332 -0.42086077 0.027650494 0.012881211
-0.036944613 0.25734693 0.31109825 0.45524848 0.09277234 -0.19153681 -0.54610634 -0.27190298
-0.009658578 0.28384137 -0.2530665 0.3349008 -0.19189106 -0.55258024 0.15721974 0.43736103
0.30282563 -0.4707934 -0.2616296 0.061561383 0.17686227 -0.0148424795 -0.13709864 0.21335901
0.24177575 0.30899972 0.016834408 0.06977227 -0.077382304 0.35475108 -0.2393593 0.16618337
0.42567948 -0.2929341 -0.31701955 -0.44469604 0.31714824 0.4168275 0.087700404 0.40634453
-0.17785838 0.26017532 -0.3030286 -0.48683596 0.2065223 -0.081194684 0.20487313 0.20157368
0.10089617 -0.24661127 -0.39622515 0.27504274 0.30510452 -0.078989156 0.007084027 -0.08190112
-0.5734757 0.29457167 0.12322403 0.051135372 0.28013095 0.17250088 -0.41433042 0.198915
0.2731901 0.31056452 0.36768427 0.17398643 0.13507931 -0.21931294 -0.4547068 0.014066892
0.079137444 -0.20262441 0.3545813 -0.37606025 -0.1415804 0.24461715 0.26567423 -0.08721577
0.2257255 0.28367704 0.25214827 0.25532493 0.24819577 0.060419586 -0.40157905 0.28618816
0.043544944 0.06651501 -0.25798652 0.21062501 -0.04633517 0.17757589 0.27141923 -0.2395454
0.30016276 -0.42190328 -0.37524617 -0.34928086 0.33584848 -0.0062771966 0.2882681 0.4639488
0.11346539 0.16281113 -0.19249003 -0.031039149 -0.23096396 -0.15094355 -0.27524075 -0.28245947
-0.18871062 -0.21755041 -0.10819508 -0.2328314 0.45948765 0.3159649 -0.047744013 -0.37365133
-0.18565096 -0.1621729 0.0046586264 -0.31431213 0.27932233 0.059478484 -0.09562045 0.38998702
0.022148084 -0.022505186 0.40886807 0.44035125 0.22464289 -0.4361426 -0.25470328 -0.050664343
-0.31483203 -0.019339807 -0.37181762 -0.0009337002 0.41639447 0.3953208 0.43094945 0.20668766
-0.14061026 0.30248255 0.008703016 0.23622322 0.10809984 -0.07733987 -0.27673498 -0.33976233
-0.0004066599 -0.084312774 0.14231777 -0.061100997 -0.19620551 0.4177974 -0.39460304 -0.09250434
0.33960986 0.1821316 -0.15638922 -0.45492178 0.42361704 -0.2874715 -0.33091787 0.0922046
0.56528693 0.3810827 0.43364856 0.26738682 0.14826062 0.10720424 0.2337835 0.32899198
0.031800408 0.2191354 0.38880426 0.15754582 0.24956812 0.13621984 0.20792544 0.045548182
0.361609 -0.20906769 -0.22907192 -0.21155919 -0.19050545 -0.28300798 -0.309437 -0.24529345
00000000: ebde efbe e31b c53e 8c01 aa3e 7a61 833d
00000010: e635 823e 5476 babe 0d01 ccbd 99c2 433e
00000020: aea4 50be 9db9 55bd d200 cf3e 760f a7bc
00000030: 33be ff3d 723b 0f3e 52f6 273e 6a70 9f3e
00000040: 9818 8d3e 9ffb 363e 7f05 813e 3c17 503e
00000050: 05a3 0abf fd33 a8bd f9e6 d73e 3796 9cbc
00000060: 3610 b8be 4832 c13e 896b 0c3c d99a 34be
00000070: ef13 a3be 103f 01be 6370 b1be f599 49be
00000080: 4b2d 86be 6793 e9bd 441c a93e c833 ae3d
00000090: 4d5a 93bc af9f a3bd 5e21 763d be44 5c3e
000000a0: 3c75 71be 1cef 81be 1d2b 8bbe a926 0dbe
000000b0: 8afa 27be 9ead 3a3e 1aee c03d 03ea 233f
000000c0: d37a b9be f4d5 28be 6b42 f93e 8200 e9be
000000d0: 52fd 09bf 86e0 0a3e 0407 a63b 1664 c43e
000000e0: c2f9 a03e 99f9 8f3d 6e49 9e3e fcd7 1ebe
000000f0: 5332 a3be 107b d7be 4a83 e23c b70b 533c
00000100: 3c53 17bd fac2 833e 4548 9f3e 5416 e93e
00000110: 6dff bd3d 3a22 44be a0cd 0bbf de36 8bbe
00000120: 033f 1ebc a853 913e ef91 81be 1e78 ab3e
00000130: 177f 44be e675 0dbf 36fe 203e c9ed df3e
00000140: f60b 9b3e d50b f1be 51f4 85be ca27 7c3d
00000150: 621b 353e df2d 73bc 9663 0cbe c97a 5a3e
00000160: 1094 773e 3635 9e3e 50e8 893c c4e4 8e3d
00000170: 9d7a 9ebd efa1 b53e 9b1a 75be f92b 2a3e
00000180: a9f2 d93e 75fb 95be 6350 a2be 33af e3be
00000190: 4161 a23e 6a6a d53e 459c b33d 640c d03e
000001a0: 8220 36be b335 853e 9126 9bbe 9042 f9be
000001b0: 957a 533e 6649 a6bd 43ca 513e 5569 4e3e
000001c0: a7a2 ce3d aa87 7cbe 06de cabe 67d2 8c3e
000001d0: a936 9c3e 11c5 a1bd 2021 e83b c6bb a7bd
000001e0: 4ecf 12bf 19d2 963e e15c fc3d 5373 513d
000001f0: 536d 8f3e 12a4 303e 1e23 d4be 60b0 4b3e
00000200: 93df 8b3e 5002 9f3e 1d41 bc3e 8029 323e
00000210: 3b52 0a3e 9293 60be 54cf e8be d278 663c
00000220: d012 a23d c67c 4fbe ae8b b53e f88a c0be
00000230: 74fa 10be eb7c 7a3e 7406 883e 2e9e b2bd
00000240: 9624 673e 1e3e 913e 9419 813e f3b9 823e
00000250: 0827 7e3e 877a 773d c59b cdbe 4187 923e
00000260: 2f5c 323d 0639 883d cf16 84be 15ae 573e
00000270: f2c9 3dbd 74d6 353e 76f7 8a3e 644b 75be
00000280: efae 993e b503 d8be 4420 c0be f1d4 b2be
00000290: 55f4 ab3e f1b0 cdbb e097 933e b28a ed3e
000002a0: 8b60 e83d f6b7 263e 1b1c 45be d045 febc
000002b0: d181 6cbe f290 1abe 5bec 8cbe 879e 90be
000002c0: 5b3d 41be 89c5 5ebe 6295 ddbd 5b6b 6ebe
000002d0: f741 eb3e 27c6 a13e 3a8f 43bd 3a4f bfbe
000002e0: 491b 3ebe a710 26be 64a7 983b 85ed a0be
000002f0: 5603 8f3e b69f 733d a8d4 c3bd 61ac c73e
00000300: e66f b53c cc5c b8bc 2857 d13e b875 e13e
00000310: c908 663e 154e dfbe 7868 82be 6a85 4fbd
00000320: aa31 a1be 846e 9ebc e15e bebe 8fc3 74ba
00000330: a831 d53e 7d67 ca3e 68a5 dc3e eea5 533e
00000340: 23fc 0fbe fede 9a3e 1897 0e3c 80e4 713e
00000350: 7363 dd3d 5e64 9ebd 35b0 8dbe 54f5 adbe
00000360: f834 d5b9 2dac acbd c0bb 113e 0a45 7abd
00000370: 19ea 48be 8ae9 d53e 6909 cabe ea72 bdbd
00000380: 58e1 ad3e b580 3a3e 7f24 20be 82eb e8be
00000390: 55e4 d83e 772f 93be 116e a9be c4d5 bc3d
000003a0: a5b6 103f 461d c33e 2f07 de3e ede6 883e
000003b0: a2d1 173e e68d db3d f164 6f3e a371 a83e
000003c0: 2541 023d 0865 603e 5a11 c73e b153 213e
000003d0: c98e 7f3e 377d 0b3e 68ea 543e bb90 3a3d
000003e0: d124 b93e d715 56be d491 6abe f9a2 58be
000003f0: dc13 43be 6ce6 90be 876e 9ebe 352e 7bbe

layers.0.bias f4 [32]
0.034302205 -0.095478654 -0.1455568 -0.33364064 0.23764251 -0.05605782 0.20410468 -0.1263537
0.073343806 0.032556184 0.16857682 -0.088252604 -0.05013233 0.020992279 0.28263143 0.16867411
0.12353428 0.017534943 0.20679295 0.2091928 -0.04662463 -0.05334601 0.18966787 0.17439869
-0.0024227938 -0.1889766 0.17867441 0.2694622 0.09371534 -0.049209837 0.20263748 -0.04962955
00000000: 7880 0c3d 508a c3bd d70c 15be f2d2 aabe
00000010: 8f58 733e e29c 65bd d100 513e dd62 01be
00000020: 4735 963d a259 053d 679f 2c3e c8bd b4bd
00000030: 8f57 4dbd 00f8 ab3c 11b5 903e e8b8 2c3e
00000040: 8aff fc3d 71a5 8f3c 88c1 533e a336 563e
00000050: 78f9 3ebd 5981 5abd 4b38 423e 9295 323e
00000060: bcc7 1ebb 1583 41be 6df6 363e f3f6 893e
00000070: d4ed bf3d 4190 49bd 3380 4f3e 5b48 4bbd

layers.3.weight f4 [64, 32, 3, 3]
-0.07231381 0.004530227 0.11052038 -0.026458329 0.20736139 0.09010324 0.13749382 0.065911494
-0.024806183 -0.08196943 -0.075370856 -0.0023100504 0.014733217 -0.05942119 -0.061654903 0.015207538
-0.028968867 -0.07590559 0.0048092697 0.047912724 0.039343085 -0.105720095 -0.08477773 0.08510091
-0.07169257 0.01145167 0.12518862 -0.031700127 0.026310645 -0.027183019 0.047163907 -0.0698824
-0.012015282 -0.11440709 -0.031020662 -0.04717599 0.017060421 -0.0635853 -0.027086709 0.005682487
-0.018958826 0.038560465 -0.032818113 -0.018834662 0.02573605 -0.02649692 -0.025036294 -0.15100047
-0.14891098 -0.21918236 -0.032665275 -0.19617671 -0.10815495 -0.029600075 -0.047299985 -0.032915697
-0.010985594 -0.17933168 0.09096972 0.042100556 0.023141196 0.0313421 -0.033268843 -0.04644575
-0.12370396 0.07210288 -0.08449045 0.09817014 0.037414785 0.07578491 -0.06113469 -0.07391521
-0.06416317 -0.099843964 -0.015607393 -0.12840939 -0.009282903 0.051838376 0.0733855 0.06202598
0.044296723 0.027478201 0.039560217 -0.017665997 0.03216501 0.028752154 -0.17095421 0.11111553
-0.12025715 -0.02573126 0.015237243 -0.03882662 0.10098409 -0.044901963 0.081082016 0.0011338235
0.06549515 -0.003821884 -0.06574919 -0.009530829 0.07861608 0.17115688 0.14203075 0.26883942
0.0040082 0.13651793 0.10626901 -0.09051465 -0.00823764 0.0149975 -0.11805791 -0.0048968727
-0.10979318 0.04369581 -0.05281827 -0.099953525 -0.11271209 -0.023128299 0.09188946 0.08320392
0.086567394 0.111744255 -0.08408313 -0.009252051 0.038093686 -0.121137775 -0.10663696 0.010786832
0.0961372 0.020854438 0.10055987 0.02309566 0.1489638 0.08415746 -0.022444535 -0.111383
-0.1069423 0.060361974 -0.05905675 -0.019276455 0.036914732 0.12173299 0.06092859 -0.091286495
-0.020712778 -0.010441671 -0.055153467 -0.110334955 -0.03153001 -0.08094622 -0.038281143 -0.14737351
-0.057678115 -0.11045237 0.05617794 0.078306615 0.12037428 0.0507639 -0.118664466 -0.0019716416
-0.06484726 -0.007889 -0.12787715 0.086607195 0.11532709 0.13522443 0.18873724 -0.052693363
0.13457237 -0.06363077 -0.10224326 0.0151733 0.01379977 -0.03242117 -0.085674845 -0.12234843
0.058783613 -0.050688345 -0.027505055 -0.06875623 0.05414021 0.1124627 -0.060469378 0.1363143
0.12241687 0.12977207 -0.05477963 0.062276848 -0.077119425 -0.025782358 0.09968195 0.038106043
0.114746585 0.10298046 -0.0017543363 0.11992702 -0.06575117 0.02736576 0.029934486 0.080464825
-0.019124607 0.064285815 -0.093431234 -0.10640327 0.023382554 -0.031729452 0.0018829893 0.017028913
-0.012037539 -0.012721853 -0.06823155 -0.013857039 -0.043457378 0.048103876 -0.08138417 0.018611625
-0.021930352 0.10751568 -0.05461836 0.04539337 -0.04436833 -0.004621265 -0.09517265 -0.071667045
-0.19116248 -0.03696262 0.03134404 -0.059734773 -0.040918615 -0.17874706 0.04851989 -0.069341496
0.038156796 0.08143242 -0.07782126 -0.06670297 -0.057274733 -0.09278767 -0.119644016 -0.038163215
-0.08357351 -0.09012248 -0.07899435 0.01384115 -0.05402925 0.0128708165 -0.13042997 -0.041474435
0.0083772065 0.017411118 0.003971252 -0.12638438 -0.08546332 -0.045153107 -0.040933482 -0.00279972
00000000: 4319 94bd 4c72 943b 8258 e23d 23bf d8bc
00000010: 8b56 543e 0c88 b83d 2ecb 0c3e 9bfc 863d
00000020: 5636 cbbc 97df a7bd 095c 9abd 3764 17bb
00000030: 9763 713c a263 73bd da89 7cbd 0a29 793c
00000040: 1e50 edbc 6474 9bbd 1497 9d3b 2240 443d
00000050: 3726 213d c783 d8bd f29f adbd 6349 ae3d
00000060: 8ed3 92bd c99f 3b3c 7231 003e fed7 01bd
00000070: 6c89 d73c ecae debc f12e 413d 811e 8fbd
00000080: bfdb 44bc 444e eabd 0b1f febc 9c3b 41bd
00000090: 4cc2 8b3c 0339 82bd f2e4 ddbc 2834 ba3b
000000a0: 8a4f 9bbc 94f1 1d3d 496c 06bd 264b 9abc
000000b0: 69d4 d23c 1210 d9bc ea18 cdbc de9f 1abe
000000c0: 1f7c 18be 5771 60be 06cc 05bd 8ce2 48be
000000d0: 5880 ddbd db7b f2bc a1bd 41bd 9cd2 06bd
000000e0: ecfc 33bc b9a2 37be 554e ba3d a271 2c3d
000000f0: 9b92 bd3c 9360 003d e944 08bd e63d 3ebd
00000100: 8058 fdbd adaa 933d 5409 adbd 6d0d c93d
00000110: 3f40 193d 1e35 9b3d 5e68 7abd dc60 97bd
00000120: fb67 83bd fe7a ccbd 27b6 7fbc c07d 03be
00000130: 5117 18bc 7a54 543d 234b 963d f40e 7e3d
00000140: 7b70 353d f719 e13c e509 223d 48b8 90bc
00000150: 75bf 033d a389 eb3c 9f0e 2fbe 8a90 e33d
00000160: 6149 f6bd 5dca d2bc a1a5 793c a908 1fbd
00000170: bfd0 ce3d 1feb 37bd 540e a63d ce9c 943a
00000180: 5222 863d 9378 7abb 83a7 86bd 3227 1cbc
00000190: 7801 a13d c043 2f3e 8270 113e 52a5 893e
000001a0: 3857 833b 5bcb 0b3e 91a3 d93d bf5f b9bd
000001b0: 2bf7 06bc 13b8 753c 58c8 f1bd f275 a0bb
000001c0: 3fdb e0bd 61fa 323d f857 58bd 6fb4 ccbd
000001d0: 99d5 e6bd 8f77 bdbc 8b30 bc3d d166 aa3d
000001e0: 3f4a b13d 2cda e43d c733 acbd ea95 17bc
000001f0: 2008 1c3d 1517 f8bd 7a64 dabd 41bb 303c
00000200: 95e3 c43d edd6 aa3c 55f2 cd3d 1c33 bd3c
00000210: f789 183e bf5a ac3d 9add b7bc c51c e4bd
00000220: 9104 dbbd 1e3e 773d 7ee5 71bd a8e9 9dbc
00000230: e733 173d 254f f93d 4290 793d 6af4 babd
00000240: d8ad a9bc 8b13 2bbc 9ae8 61bd 4bf7 e1bd
00000250: 9d25 01bd 22c7 a5bd b0cc 1cbd 15e9 16be
00000260: e33f 6cbd da34 e2bd d71a 663d 385f a03d
00000270: ca86 f63d cfed 4f3d 5b06 f3bd a836 01bb
00000280: a4ce 84bd dd40 01bc 3af2 02be 1d5f b13d
00000290: 9c30 ec3d 4678 0a3e 5644 413e ffd4 57bd
000002a0: 57cd 093e d950 82bd ea64 d1bd 6f99 783c
000002b0: 6e18 623c 10cc 04bd 4b76 afbd d091 fabd
000002c0: 16c7 703d 959e 4fbd 4852 e1bc 11d0 8cbd
000002d0: 20c2 5d3d d852 e63d bdae 77bd fa95 0b3e
000002e0: b2b5 fa3d f8e2 043e 9b60 60bd 0216 7f3d
000002f0: caf0 9dbd 8635 d3bc 0d26 cc3d 1515 1c3d
00000300: 4200 eb3d 6be7 d23d c2f1 e5ba 4c9c f53d
00000310: 8da8 86bd 292e e03c 2b39 f53c beca a43d
00000320: 35ab 9cbc 48a8 833d e058 bfbd f5e9 d9bd
00000330: c58c bf3c bef6 01bd a3ce f63a 3880 8b3c
00000340: 1939 45bc 526f 50bc fcbc 8bbd a208 63bc
00000350: 5d00 32bd 9208 453d beac a6bd 6877 983c
00000360: 48a7 b3bc 2e31 dc3d 80b7 5fbd 66ee 393d
00000370: 91bb 35bd fb6d 97bb e1e9 c2bd 2cc6 92bd
00000380: 19c0 43be 1e66 17bd 9c62 003d 73ac 74bd
00000390: 479a 27bd 7809 37be cbbc 463d ea02 8ebd
000003a0: 4d4a 1c3d 0ac6 a63d c160 9fbd 919b 88bd
000003b0: e998 6abd 7607 bebd ec07 f5bd 0851 1cbd
000003c0: 9728 abbd 2392 b8bd cac7 a1bd fec5 623c
000003d0: c64d 5dbd 1ee0 523c 6f8f 05be 19e1 29bd
000003e0: 8d40 093c c3a1 8e3c 4721 823b e86a 01be
000003f0: 6507 afbd 77f2 38bd dea9 27bd 827b 37bb

layers.3.bias f4 [64]
-0.041558474 0.04951009 0.008797166 -0.018477386 0.028482433 0.04561121 -0.0010819648 0.01856712
-0.00070050877 0.023415755 -0.014493299 -0.043404825 0.02291485 -0.019778928 -0.05688582 0.0023545523
-0.006797927 0.047956478 -0.02369825 -0.05699343 0.020053238 -0.04511709 -0.06312412 0.024770897
-0.03613468 0.028219301 -0.04238821 0.00658036 0.000887228 -0.007882905 0.029191311 -0.06073444
-0.02087148 -0.038055588 0.0009962549 0.038505636 -0.035920147 0.040751114 -0.017504402 -0.046917412
-0.04850465 -0.026757715 -0.026242502 0.0027700553 0.0016733494 0.002153836 -0.035000626 -0.023588132
-0.06528009 -0.0034798263 -0.016990043 -0.049393557 0.04245461 -0.024110993 -0.003093294 -0.075901836
0.004830163 0.016512375 0.016108751 0.0013152254 -0.061938513 0.02205096 0.03195528 0.02150603
00000000: 3839 2abd 18cb 4a3d fd21 103c e35d 97bc
00000010: fe53 e93c d2d2 3a3d b7d0 8dba 131a 983c
00000020: 59a2 37ba 66d2 bf3c 4d75 6dbc 42c9 31bd
00000030: ecb7 bb3c 6b07 a2bc 1b01 69bd d54e 1a3b
00000040: 25c1 debb 036e 443d d522 c2bc f171 69bd
00000050: b046 a43c b3cc 38bd 3847 81bd 56ec ca3c
00000060: f501 14bd 2a2c e73c 429f 2dbd 0fa0 d73b
00000070: dd94 683a 4d27 01bc 9e22 ef3c adc4 78bd
00000080: abfa aabc 2de0 1bbd c494 823a 16b8 1d3d
00000090: 0121 13bd a4ea 263d 6465 8fbc 792c 40bd
000000a0: d0ac 46bd ff32 dbbc 84fa d6bc d189 353b
000000b0: 4a54 db3a 5f27 0d3b d15c 0fbd e63b c1bc
000000c0: 91b1 85bd cc0d 64bb b42e 8bbc e650 4abd
000000d0: e3e4 2d3d 6b84 c5bc ddb8 4abb 6c72 9bbd
000000e0: 5846 9e3b f644 873c 80f6 833c a463 ac3a
000000f0: 3db3 7dbd 37a4 b43c 8ae3 023d 6a2d b03c

layers.7.weight f4 [128, 1600]
-0.0152267 -0.008324269 -0.00030220216 0.07033157 0.00019244765 -0.038975064 -0.035249572 0.02523268
-0.007045281 -0.11278385 -0.032478083 0.003937675 0.03462001 -0.106605224 -0.13176776 -0.021365054
-0.10653302 -0.012731623 -0.0425918 -0.022610152 -0.0009676429 -0.00895602 0.012478687 -0.01207847
-0.10067494 -0.013182558 0.035721507 0.050292842 -0.017131666 -0.04221509 -0.0153803425 0.057894208
0.013874126 -0.06631496 0.045466248 -0.027227715 0.074488275 0.079231344 0.039895345 -0.0024749285
0.017407978 -0.0009597439 0.029769342 0.022483679 -0.015271016 -0.0035895098 -0.023571331 0.049786594
0.018231997 0.0070964186 0.0024545752 0.0142702265 -0.00117485 0.0192702 0.03896712 -0.029779293
-0.028684787 0.018125495 -0.053859193 -0.049916964 -0.07689357 0.030471522 0.0491547 -0.031431865
-0.056067042 -0.022669973 -0.03748139 0.012927422 -0.026417064 -0.03066462 -0.001652411 -0.012498167
-0.00020338752 0.018195875 -0.05905913 0.0046889842 -0.0677686 -0.04361681 0.017488787 0.020087074
0.013148472 -0.08250959 -0.082433626 0.050462123 0.08929482 -0.06884101 -0.042302646 0.038026728
0.08456483 0.06643548 -0.030125968 0.018401459 -0.036804363 -0.023967786 -0.018540742 0.038150888
0.051951874 -0.030795509 0.013501175 -0.067105025 -0.105914965 -0.08741755 0.022108467 0.013627481
-0.0014777284 -0.14494157 -0.056499187 -0.020473693 0.0004564267 0.03653969 0.03163785 -0.05694374
-0.031098077 0.008588634 -0.055637613 -0.020757124 -0.10686102 0.005458829 -0.043765046 -0.084669515
0.04824623 0.041740786 0.051010787 -0.073887214 -0.008621361 -0.02333888 0.037033875 0.00928659
-0.010341609 -0.025823038 -0.046208706 0.034382463 0.050626095 -0.04559756 -0.0062311045 0.01793098
0.009001061 0.05783743 -0.017328423 0.0035370712 0.011297729 0.012492168 0.06217266 0.015108564
-0.070233226 -0.0046457965 -0.024086049 0.03665614 0.05309802 0.01894277 -0.04442781 -0.020830426
-0.030858552 0.06494856 0.10438907 -0.0025806695 -0.03533761 -0.006963431 0.010753615 0.035552498
-0.0149210235 -0.0322374 0.062373936 0.007779658 0.026515514 -0.000727936 0.024926709 -0.03206382
-0.002486329 -0.04333706 -0.005595049 0.030445041 0.023422422 0.003633751 -0.0032695327 -0.078380816
0.09468659 0.07660017 0.055044822 -0.047930464 -0.09071624 0.03867274 0.057979204 -0.0062700906
-0.064020224 -0.019717682 0.04949874 0.05052937 -0.0034622843 -0.054588005 0.014409528 0.008093203
0.07227773 0.04742717 -0.14535613 -0.07069665 -0.08530793 0.021839397 0.049944747 -0.0064335545
-0.0034061044 -0.15063551 -0.07997057 -0.023964355 0.027658774 -0.0698679 -0.048155818 -0.02058176
0.037731286 0.068417385 -0.07767762 -0.062729 0.041815888 -0.022485942 -0.048804704 -0.03105017
-0.03852132 0.029202426 -0.032497298 -0.085253984 0.00032394548 0.023537934 -0.001447898 -0.047162574
-0.05989758 0.0034915344 -0.008624517 -0.017949244 -0.015813041 -0.012063932 0.00031711356 -0.022762801
0.005002331 0.0028958854 0.002857761 -0.014488512 -0.008778286 -0.018299561 0.0222826 -0.018948797
0.0073060873 0.010187818 -0.028422374 0.008230378 -0.0059583816 0.02621433 -0.005134175 -0.026715506
-0.0053834305 -0.01240948 -0.0010245764 -0.07394388 -0.007667059 0.0066824444 -0.0389114 0.008693017
00000000: 6979 79bc 8462 08bc e370 9eb9 000a 903d
00000010: c6cb 4939 51a4 1fbd db61 10bd c4b4 ce3c
00000020: 1adc e6bb 38fb e6bd bd07 05bd 9d07 813b
00000030: b6cd 0d3d d753 dabd 21ee 06be c405 afbc
00000040: fc2d dabd 4c98 50bc bd74 2ebd ed38 b9bc
00000050: 6aa9 7dba 45bc 12bc 6873 4c3c c6e4 45bc
00000060: aa2e cebd a8fb 57bc b750 123d deff 4d3d
00000070: b557 8cbc bbe9 2cbd d5fd 7bbc 7a22 6d3d
00000080: 4d50 633c 23d0 87bd d13a 3a3d a80c dfbc
00000090: 4f8d 983d 0b44 a23d 4d69 233d 6932 22bb
000000a0: 2d9b 8e3c 5397 7bba d6de f33c b12f b83c
000000b0: 4933 7abc fb3d 6bbb aa18 c1bc 07ed 4b3d
000000c0: 455b 953c 1389 e83b f0dc 203b abcd 693c
000000d0: 6dfd 99ba 8adc 9d3c fd9b 1f3d b4f3 f3bc
000000e0: 5cfc eabc eb7b 943c 759b 5cbd bb75 4cbd
000000f0: 607a 9dbd 6a9f f93c 7056 493d b3be 00bd
00000100: 8ea6 65bd 61b6 b9bc 1686 19bd 8acd 533c
00000110: 9968 d8bc 5f34 fbbc b695 d8ba 1dc5 4cbc
00000120: 6c44 55b9 840f 953c fce7 71bd 0da6 993b
00000130: 44ca 8abd 8aa7 32bd a544 8f3c a68d a43c
00000140: b06c 573c cafa a8bd f6d2 a8bd 5fb1 4e3d
00000150: 34e0 b63d 84fc 8cbd 8a45 2dbd eac1 1b3d
00000160: 5330 ad3d 530f 883d bcca f6bc a8be 963c
00000170: 2cc0 16bd 1758 c4bc c1e2 97bc 1b44 1c3d
00000180: 7dcb 543d dd46 fcbc 0834 5d3c 5c6e 89bd
00000190: f2e9 d8bd f907 b3bd d11c b53c cc45 5f3c
000001a0: 56b0 c1ba 906b 14be b16b 67bd 72b8 a7bc
000001b0: 8e4c ef39 a4aa 153d b196 013d d73d 69bd
000001c0: 65c1 febc 58b7 0c3c 44e4 63bd d80a aabc
000001d0: f3d9 dabd fadf b23b fa42 33bd 3667 adbd
000001e0: d79d 453d 63f8 2a3d b0f0 503d 2e52 97bd
000001f0: 9c40 0dbc 2e31 bfbc d5b0 173d c826 183c
00000200: da6f 29bc d68a d3bc 5745 3dbd a0d4 0c3d
00000210: 4f5d 4f3d 82c4 3abd 4b2e ccbb fee3 923c
00000220: 3079 133c f1e6 6c3d 56f4 8dbc 35ce 673b
00000230: 1c1a 393c f3ab 4c3c c2a8 7e3d e989 773c
00000240: 70d6 8fbd c43b 98bb 1b50 c5bc c024 163d
00000250: 4f7d 593d de2d 9b3c eff9 35bd 92a4 aabc
00000260: 13cb fcbc c003 853d f0c9 d53d 7320 29bb
00000270: 2bbe 10bd 7e2d e4bb ee2f 303c 7f9f 113d
00000280: 4f77 74bc 5d0b 04bd d07b 7f3d 80ec fe3b
00000290: 1037 d93c f5d2 3eba 1933 cc3c 5a55 03bd
000002a0: aef1 22bb 3382 31bd ac56 b7bb e167 f93c
000002b0: 61e0 bf3c 3a24 6e3b a845 56bb 1f86 a0bd
000002c0: 0beb c13d 8de0 9c3d ae76 613d bc52 44bd
000002d0: 70c9 b9bd 4f67 1e3d 9a7b 6d3d 5575 cdbb
000002e0: 091d 83bd fa86 a1bc 31bf 4a3d e2f7 4e3d
000002f0: 7ee7 62bb ac97 5fbd f115 6c3c 5b99 043c
00000300: 5906 943d fe42 423d 3dd8 14be 68c9 90bd
00000310: edb5 aebd 89e8 b23c dd92 4c3d 91d0 d2bb
00000320: f338 5fbb 3240 1abe 9cc7 a3bd e550 c4bc
00000330: a794 e23c e716 8fbd 093f 45bd 149b a8bc
00000340: 1f8c 1a3d 6a1e 8c3d 7215 9fbd 1078 80bd
00000350: 2347 2b3d 7034 b8bc 71e7 47bd ed5c febc
00000360: 88c8 1dbd ed39 ef3c e31b 05bd a499 aebd
00000370: 3ad7 a939 a0d2 c03c 65c7 bdba 8b2d 41bd
00000380: 2a57 75bd 3ad2 643b d94d 0dbc 4b0a 93bc
00000390: 5a8a 81bc cca7 45bc 4342 a639 0e79 babc
000003a0: 98ea a33b e5c8 3d3b 4649 3b3b 3961 6dbc
000003b0: cdd2 0fbc f6e8 95bc 008a b63c 823a 9bbc
000003c0: e767 ef3b ceea 263c 0ad6 e8bc b5d8 063c
000003d0: 873e c3bb 6fbf d63c 953c a8bb 7ada dabc
000003e0: 7d67 b0bb 2251 4bbc 144b 86ba e46f 97bd
000003f0: f43b fbbb 68f8 da3b 8f61 1fbd 286d 0e3c

layers.7.bias f4 [128]
-0.004395547 0.046226878 0.0066745384 0.018282687 0.04226154 -0.031634897 0.008490918 0.0066510513
-0.024207659 -0.01102188 0.0012472799 0.0043455847 -0.012514711 -0.0056692734 0.008729079 -0.0090220515
0.0034159834 0.014011491 -0.007247389 -0.022112941 0.013521828 -0.011720668 0.00339915 0.028696645
-0.020949986 0.0027860573 -0.021075228 -0.016993817 0.016044963 -0.0074036755 0.054722782 -0.006650403
-0.029043665 -0.020528587 0.00464418 0.013011484 -0.014360415 0.0018856867 -0.019967899 -0.012876879
-0.01663513 0.0033488136 0.004585217 0.032109883 0.028284121 -0.0040478813 -0.024752235 -0.025411539
-0.04432128 -0.0015057147 -0.013331942 0.0068611586 -0.0396588 0.037704933 0.01617711 0.012038484
-0.0014702819 -0.011718862 -0.018903749 -0.0109610185 -0.02475673 0.03019034 -0.006278678 0.0018711416
-0.010146218 -0.004532231 0.027532188 0.03039047 0.014144401 0.006414132 0.022221705 -0.033802878
0.010222099 -0.0055021364 -0.022948768 0.029490963 -0.019078413 -0.02686006 0.002975586 -0.033910546
-0.039641507 -0.014319062 -0.009020241 0.042331643 0.022928465 -0.026369806 0.033825822 0.010121806
0.009744212 0.011236986 -0.009565533 0.024008855 -0.0068056853 0.01768566 -0.002443027 0.0074418797
-0.037678372 -0.006820304 -0.026319033 0.007915413 0.02445519 -0.013562764 0.018899385 0.006153151
-0.00490703 -0.011327741 0.04142965 0.008156622 0.020764785 0.026562642 -0.022914747 -0.027662126
0.016594455 -0.014625388 -0.0012916317 0.0013254352 -0.0039552297 0.037523545 0.00072098133 -0.022804083
0.0073465127 -0.021601155 -0.000632936 0.043861043 -0.019847484 -0.018737286 -0.036606137 -0.0041955775
00000000: 8508 90bb 6558 3d3d 16b6 da3b 93c5 953c
00000010: 701a 2d3d 9893 01bd 7e1d 0b3c 10f1 d93b
00000020: 244f c6bc 1e95 34bc c57b a33a 6865 8e3b
00000030: 810a 4dbc 50c5 b9bb 6904 0f3c 3ad1 13bc
00000040: b1de 5f3b 7490 653c 817b edbb 3326 b5bc
00000050: a88a 5d3c 0b08 40bc 46c4 5e3b 3a15 eb3c
00000060: 4e9f abbc 4996 363b f5a5 acbc 9e36 8bbc
00000070: ba70 833c 889a f2bb ff24 603d a0eb d9bb
00000080: fbec edbc 912b a8bc 352e 983b 1f2e 553c
00000090: f247 6bbc 2529 f73a b893 a3bc 8cf9 52bc
000000a0: 6546 88bc c577 5b3b 973f 963b a785 033d
000000b0: 1ab4 e73c 17a4 84bb 33c5 cabc dc2b d0bc
000000c0: 3b8a 35bd 675b c5ba 386e 5abc 92d3 e03b
000000d0: 4471 22bd 7d70 1a3d dc85 843c 103d 453c
000000e0: 79b6 c0ba 7800 40bc 09dc 9abc d895 33bc
000000f0: a0ce cabc bb51 f73c 5ebd cdbb 1841 f53a
00000100: 533c 26bc 1c83 94bb 2f8b e13c 6ff5 f83c
00000110: ebbd 673c a42d d23b 4b0a b63c e374 0abd
00000120: 977a 273c 444b b4bb 0eff bbbc 0897 f13c
00000130: 554a 9cbc a109 dcbc 0d02 433b c9e5 0abd
00000140: 225f 22bd 809a 6abc a2c9 13bc f263 2d3d
00000150: 7ad4 bb3c 7e05 d8bc f28c 0a3d eed5 253c
00000160: 30a6 1f3c 561b 383c c1b8 1cbc 38ae c43c
00000170: 3a02 dfbb 84e1 903c 311b 20bb 03db f33b
00000180: a354 1abd db7c dfbb 039b d7bc a6af 013c
00000190: 4056 c83c 5b36 5ebc e2d2 9a3c 5fa0 c93b
000001a0: 27cb a0bb fd97 39bc 23b2 293d 5aa3 053c
000001b0: e91a aa3c e699 d93c b5b7 bbbc af9b e2bc
000001c0: 18f1 873c 539f 6fbc f84b a9ba 3aba ad3a
000001d0: df9a 81bb 4ab2 193d 3d00 3d3a a1cf babc
000001e0: 04bb f03b e8f4 b0bc 9eeb 25ba a3a7 333d
000001f0: 3197 a2bc f07e 99bc 51f0 15bd 0e7b 89bb

layers.9.weight f4 [10, 128]
-0.09587855 0.043689657 0.084563844 0.070836745 0.009211829 0.055508796 -0.050118186 -0.0178901
-0.065388955 0.08490086 -0.0042195776 -0.04312871 -0.059019405 0.045043528 -0.008808833 0.051609796
-0.022206938 0.008230069 -0.13433276 0.13340369 -0.012705977 0.05713078 0.0012724792 0.06506257
0.006396577 -0.060744498 -0.0062283888 -0.077779904 -0.052227452 0.11578315 -0.08596633 -0.017170448
0.03306815 -0.03226933 0.01261815 -0.00083725515 0.0516311 0.122572966 -0.019426836 -0.0356714
0.08131151 0.023579214 0.13445841 0.06558244 -0.08108667 -0.07721751 0.08987626 -0.058394354
0.07255246 0.035125267 -0.048796605 -0.043160263 -0.0070471563 -0.028478224 0.024116604 -0.059187204
-0.030200105 -0.056374907 -0.058372237 0.06635846 -0.15737201 0.088333614 0.10537333 0.026511656
-0.06423337 0.047913205 -0.057012804 -0.15843317 -0.105968826 0.051112346 -0.09493722 0.056921776
0.0650999 -0.03247268 -0.013226634 -0.034857564 -0.049691267 0.0013156936 -0.022336392 -0.037284266
0.028688753 0.021210082 -0.061390754 -0.12832023 0.06726042 0.00490881 -0.055019155 -0.051728822
0.053634025 0.041474927 -0.07219694 -0.017840443 0.040811297 0.08195919 0.08214923 0.03800575
-0.08352529 -0.08467716 -0.05852965 0.08787307 -0.045027774 0.011059675 0.04165816 -0.13148361
0.059066325 0.059185017 6.327009e-05 0.065061696 0.09936569 -0.12548247 -0.03823023 -0.009412038
0.12534265 -0.115260966 -0.058367487 -0.1221584 0.0010328244 0.0728463 -0.11583329 -0.015880274
0.050168235 -0.03394905 -0.033686396 0.10152062 -0.105590045 -0.04404997 0.03704139 -0.042797796
0.09860751 0.109694816 -0.12432366 -0.13704707 0.046534233 -0.17119065 0.03815775 -0.009174694
0.051850446 -0.110812955 0.1089173 -0.058431398 0.023018464 -0.0043848273 -0.07665749 -0.0901641
0.035570722 0.088574536 0.095668375 0.049547434 -0.07836522 -0.07735082 0.061559882 -0.07999184
-0.006378646 -0.052581165 0.06410673 -0.069911286 -0.02859462 0.040523626 0.12663648 0.019683922
-0.044616017 -0.047572028 -0.0024255845 0.007419807 -0.024892457 -0.029503763 -0.11804257 0.0037076445
-0.07802742 0.050225124 0.047213793 0.088551134 0.06653094 -0.014581096 -0.03699509 0.041336004
-0.059673496 -0.078951046 -0.03288429 0.06352757 -0.14927445 -0.005981192 0.023034727 0.0336558
0.036319934 -0.0051932847 -0.06626833 0.026557142 -0.021324385 -0.0215394 -0.11761637 -0.1250897
0.034077663 -0.12884387 0.04310888 0.05107536 -0.06966042 -0.0016236288 0.06343617 -0.07883014
-0.0055868565 0.0012433976 -0.026409565 0.05376987 -0.089226834 -0.06684846 -0.020093257 0.101528324
-0.14671631 -0.116262116 0.010809525 0.15606633 0.11312162 -0.04951888 0.07168786 0.096503526
0.005139126 0.084924154 -0.027300023 0.03249672 -0.1286791 -0.016356448 0.031001762 -0.13491422
-0.13769892 0.004888569 -0.07674519 0.05993668 0.12069787 -0.0948589 -0.042022716 0.053646713
0.040361587 -0.12010575 0.009505237 -0.0020212089 0.09747804 -0.006954428 -0.08591485 -0.03176917
0.08989266 -0.06906108 0.0025611087 0.07267141 -0.07470457 0.06900154 0.011290805 -0.024681648
0.010016346 0.002926129 0.0077779926 0.04437071 -0.02793973 0.0053380514 0.06239938 -0.08765101
00000000: f95b c4bd edf3 323d cf2f ad3d db12 913d
00000010: 36ed 163c 315d 633d ba48 4dbd 428e 92bc
00000020: a5ea 85bd 81e0 ad3d 6244 8abb bba7 30bd
00000030: 55be 71bd 907f 383d ec52 10bc cb64 533d
00000040: 53eb b5bc 69d7 063c 878e 09be fa9a 083e
00000050: bb2c 50bc f701 6a3d 51c9 a63a 863f 853d
00000060: 619a d13b 39cf 78bd 8317 ccbb 124b 9fbd
00000070: 74ec 55bd b71f ed3d 1d0f b0bd 0aa9 8cbc
00000080: 7872 073d d82c 04bd 5bbc 4e3c 3e7b 5bba
00000090: 227b 533d 8907 fb3d 0725 9fbc 2d1c 12bd
000000a0: a686 a63d 3229 c13c 77af 093e 1650 863d
000000b0: c510 a6bd 3724 9ebd 0b11 b83d eb2e 6fbd
000000c0: 6296 943d 83df 0f3d f3de 47bd d1c8 30bd
000000d0: d5eb e6bb 2a4b e9bc 2f90 c53c 486e 72bd
000000e0: 3666 f7bc 60e9 66bd ba17 6fbd f2e6 873d
000000f0: 2126 21be 41e8 b43d f9cd d73d f92e d93c
00000100: c98c 83bd a340 443d 4286 69bd 4e3c 22be
00000110: 2f06 d9bd 2e5b 513d 726e c2bd cf26 693d
00000120: 1953 853d 1302 05bd 86b4 58bc cec6 0ebd
00000130: 1289 4bbd 5a73 ac3a cffa b6bc 63b7 18bd
00000140: ad04 eb3c c4c0 ad3c df74 7bbd 6166 03be
00000150: d5bf 893d 15da a03b c45b 61bd 9ae1 53bd
00000160: 5aaf 5b3d 9de1 293d fddb 93bd 1f26 92bc
00000170: bf29 273d 38da a73d db3d a83d ebab 1b3d
00000180: 4f0f abbd 386b adbd c9bc 6fbd ccf6 b33d
00000190: 0b6f 38bd a433 353c bfa1 2a3d a4a3 06be
000001a0: 88ef 713d fd6b 723d dfaf 8438 113f 853d
000001b0: 3d80 cb3d 7a7e 00be 4d97 1cbd f334 1abc
000001c0: d359 003e f10d ecbd bf12 6fbd 2f2e fabd
000001d0: d65f 873a 7130 953d 013a edbd 5917 82bc
000001e0: 357d 4d3d 290e 0bbd bffa 09bd 0bea cf3d
000001f0: 983f d8bd be6d 34bd b6b8 173d be4c 2fbd
00000200: bcf2 c93d ada7 e03d 679d febd 1156 0cbe
00000210: ae9a 3e3d 9a4c 2fbe 4d4b 1c3d 7551 16bc
00000220: 2261 543d e7f1 e2bd 0910 df3d c355 6fbd
00000230: 3891 bc3c 99ae 8fbb 9afe 9cbd f5a7 b8bd
00000240: 9bb2 113d 9166 b53d c8ed c33d 40f2 4a3d
00000250: f27d a0bd 1b6a 9ebd 3726 7c3d c3d2 a3bd
00000260: f603 d1bb 595f 57bd 644a 833d a62d 8fbd
00000270: 443f eabc 1afc 253d feac 013e 2d40 a13c
00000280: 49bf 36bd e3da 42bd 8ef6 1ebb da21 f33b
00000290: 44eb cbbc e0b1 f1bc 4ec0 f1bd f4fb 723b
000002a0: d7cc 9fbd dcb8 4d3d 4063 413d 4c5a b53d
000002b0: 6041 883d 8de5 6ebc 2a88 17bd f14f 293d
000002c0: 326c 74bd 16b1 a1bd adb1 06bd be1a 823d
000002d0: 67db 18be e0fd c3bb 53b3 bc3c aada 093d
000002e0: 36c4 143d 6e2c aabb b1b7 87bd 5d8e d93c
000002f0: 7ab0 aebc 6573 b0bc dae0 f0bd 8417 00be
00000300: 0595 0b3d a6ef 03be f092 303d 6634 513d
00000310: 1faa 8ebd f1cf d4ba d3ea 813d b271 a1bd
00000320: f311 b7bb 80f9 a23a df58 d8bc cc3d 5c3d
00000330: 8fbc b6bd d8e7 88bd 9d9a a4bc 15ee cf3d
00000340: cd3c 16be d51a eebd 6f1a 313c dacf 1f3e
00000350: 4fac e73d 4fd4 4abd 16d1 923d a4a3 c53d
00000360: 1d66 a83b b7ec ad3d 4ca4 dfbc 481b 053d
00000370: 74c4 03be f5fd 85bc 68f7 fd3c f426 0abe
00000380: f200 0dbe 4a30 a03b 952c 9dbd 2a80 753d
00000390: 7230 f73d 6245 c2bd 0320 2cbd a8bc 5b3d
000003a0: 3152 253d 01fa f5bd dbbb 1b3c 4276 04bb
000003b0: 91a2 c73d f8e1 e3bb 20f4 afbd 6420 02bd
000003c0: a519 b83d e56f 8dbd 46d8 273b c0d4 943d
000003d0: b6fe 98bd ae50 8d3d 12fd 383c 2b31 cabc
000003e0: 9a1b 243c 4cc4 3f3b 88de fe3b 10be 353d
000003f0: dce1 e4bc d2ea ae3b 7e96 7f3d 5f82 b3bd

layers.9.bias f4 [10]
-0.07427627 -0.046068978 -0.013034285 0.08710476 -0.072351314 0.003468905 -0.008206783 -0.033328194
-0.020890938 -0.019439666
00000000: 281e 98bd d3b2 3cbd c18d 55bc fb63 b23d
00000010: ed2c 94bd 9256 633b be75 06bc 2583 08bd
00000020: 7923 abbc ef3f 9fbc
